MLA/results/RollerBall/RollerBall/RollerBall-275071.onnx (onnx, 79314 bytes, 8 tensors)

network_body._body_endoder.seq_layers.0.weight f4 [128, 8]
0.2446151 -0.028949637 0.47023657 0.89173615 -0.0906399 0.09478521 -0.3322384 -0.44515568
0.01446241 -0.33106577 0.5978146 -0.32993603 -0.39199084 0.75128657 0.03554141 0.86567855
0.540054 -0.10265406 0.3841278 -0.2845462 0.34272692 0.17434442 0.30761114 0.5998719
-0.90222245 -0.05211189 -0.7167061 -0.22658893 -0.11969488 0.06935497 -0.10057028 -0.328596
0.41426498 -0.0236211 -0.79463255 0.055953946 0.18087214 0.101335034 -0.115401596 0.086715534
0.5403503 0.12830341 0.28179467 -0.15641098 0.40720105 0.38251176 -0.0383156 -0.29867274
-0.17134702 0.20279041 -0.16726862 -0.3941525 -0.32516435 -0.23597041 0.083874956 -0.3561338
0.18495639 0.32288638 0.16873223 -0.9546614 -0.537758 -0.71810794 -0.43044797 0.5876373
-0.8567873 0.004268616 0.028265383 0.78578854 0.11836382 -0.17388414 -0.91369855 0.07363635
0.013412583 -0.11246628 -0.097321056 -0.3820378 -0.21786724 -0.0941972 -0.41387948 0.106318116
-0.28296202 -0.5903379 0.13685061 0.40657246 -0.23410133 0.19052473 -0.23223844 0.2848727
0.11125643 0.71919763 0.34732452 -0.6101993 -0.6145858 -0.00541302 -0.1375364 0.003990052
-0.34488502 0.40691656 -0.31473768 0.38949484 -0.34342876 -0.16160071 0.7976465 0.21931502
0.2570179 -0.14578491 -0.319689 -0.14853418 0.1880016 -0.121461965 -0.6222551 -0.6451059
0.08474379 -0.14892448 -1.1756022 -0.22227363 0.5038882 -0.3841025 -0.12736152 0.46943864
-0.019152462 -0.48018438 0.052439105 0.05300357 0.5425078 -0.425284 -0.023801655 -0.4414801
0.09129829 0.1313124 -0.39186907 -0.44974703 -0.2565684 0.081456505 0.24010724 -0.24653749
-0.31883988 -0.15723276 0.3928048 0.5458707 -0.247192 0.08073373 0.3922641 -0.6207337
0.025853222 -0.45226616 0.033126764 0.08789457 0.122543745 -0.639182 -0.5476771 -0.19001497
0.20765103 0.50839543 0.31809467 -0.41511548 0.86560553 -0.12920305 -0.15528858 0.053738173
-0.2264673 0.3539319 -0.12365158 -0.21967241 -0.5258302 0.21803758 0.11541154 -0.27368975
-0.26982895 0.1968248 -0.0037667633 -0.2514342 0.14887749 -0.60503125 0.05703136 -0.69760716
0.40451384 0.25881237 -0.26000935 -0.3391144 0.056115083 0.85228175 -0.16605784 -0.5900676
-0.64671314 0.064176485 0.21171206 -0.22712381 0.4814213 -0.3570341 0.48600018 0.059114274
0.2411169 -0.35849997 0.13406703 -0.37057108 -0.36451507 0.18339096 0.36697948 0.27844557
0.050818034 0.3160478 -0.05911814 -0.40214136 -0.22847274 -0.54853815 0.26893482 0.07980622
-0.26771414 -0.70215684 0.26813683 -0.6152825 -0.021488493 -0.26201707 -0.79465336 0.048784368
-0.48479673 0.07168973 -0.15909038 1.155001 -0.010152322 0.14446321 1.0488454 -0.056321304
0.4548651 0.11452653 -0.14174436 -0.43592817 -0.37074825 -0.07194586 0.042238627 -0.30092108
0.1377036 -0.23798274 0.8097962 0.2747571 -0.010733651 -0.24741733 -0.2908823 0.32777858
0.010786708 -0.019221487 0.09531474 -0.29635376 0.18313155 -0.113230355 -0.28591007 -0.38517877
0.19996761 -0.13832071 -0.22744581 -0.07302641 -0.07398661 -0.21870595 0.48026574 0.16235128
00000000: 617c 7a3e ca27 edbc d9c2 f03e d248 643f
00000010: 69a1 b9bd c01e c23d 271b aabe 72eb e3be
00000020: bef3 6c3c 7481 a9be 610a 193f 60ed a8be
00000030: 06b3 c8be 5154 403f df93 113d 1c9d 5d3f
00000040: fb40 0a3f 4b3c d2bd 66ac c43e 0ab0 91be
00000050: e779 af3e 5887 323e 357f 9d3e 3491 193f
00000060: 0df8 66bf 4773 55bd 0d7a 37bf ee06 68be
00000070: 9722 f5bd fa09 8e3d caf7 cdbd bc3d a8be
00000080: 8a1a d43e 0981 c1bc 0a6d 4bbf f72f 653d
00000090: 8c36 393e be88 cf3d ac57 ecbd ea97 b13d
000000a0: 6654 0a3f f861 033e 6447 903e 332a 20be
000000b0: a87c d03e 95d8 c33e d2f0 1cbd a2eb 98be
000000c0: 9875 2fbe 4aa8 4f3e 7748 2bbe 5bce c9be
000000d0: f17b a6be 3aa2 71be a2c6 ab3d 2b57 b6be
000000e0: 3565 3d3e 5d51 a53e 24c8 2c3e b164 74bf
000000f0: 82aa 09bf ecd5 37bf ad63 dcbe 666f 163f
00000100: 6a56 5bbf bfdf 8b3b ce8c e73c 7029 493f
00000110: bb68 f23d af0e 32be 26e8 69bf a8ce 963d
00000120: 73c0 5b3c b954 e6bd 4350 c7bd 759a c3be
00000130: 9718 5fbe 76ea c0bd 03e8 d3be 50bd d93d
00000140: 66e0 90be 6220 17bf 9122 0c3e 442a d03e
00000150: 42b8 6fbe ea18 433e eacf 6dbe d6da 913e
00000160: 69da e33d 561d 383f 85d4 b13e 0536 1cbf
00000170: 7f55 1dbf b45f b1bb 58d6 0cbe fbbe 823b
00000180: c594 b0be 5e57 d03e 4c25 a1be de6b c73e
00000190: e5d5 afbe a87a 25be 9032 4c3f 1e94 603e
000001a0: da97 833e a448 15be 47ae a3be 5819 18be
000001b0: 7e83 403e 0dc1 f8bd 1c4c 1fbf a925 25bf
000001c0: 278e ad3d a97f 18be 227a 96bf b39b 63be
000001d0: d1fe 003f 15a9 c4be 0f6b 02be 435a f03e
000001e0: a0e5 9cbc bada f5be 63ca 563d 451a 593d
000001f0: cbe1 0a3f d3be d9be b0fb c2bc ae09 e2be
00000200: 99fa ba3d c276 063e 10a3 c8be 3e45 e6be
00000210: ef5c 83be abd2 a63d acde 753e 5374 7cbe
00000220: fb3e a3be a001 21be b61d c93e 2fbe 0b3f
00000230: e61f 7dbe ba57 a53d d7d6 c83e 67e8 1ebf
00000240: 23ca d33c 6e8f e7be eeaf 073d 1102 b43d
00000250: 37f8 fa3d 6ea1 23bf 9134 0cbf 4993 42be
00000260: 79a2 543e 3426 023f 4edd a23e 048a d4be
00000270: 5398 5d3f ce4d 04be f803 1fbe 8f1c 5c3d
00000280: 0be7 67be 9036 b53e 0a3d fdbd cef1 60be
00000290: cf9c 06bf 3e45 5f3e e35c ec3d 1021 8cbe
000002a0: 0527 8abe 718c 493e cddb 76bb fcbb 80be
000002b0: 5773 183e 54e3 1abf b799 693d 6296 32bf
000002c0: 701c cf3e 0e83 843e f21f 85be 67a0 adbe
000002d0: eed8 653d 232f 5a3f 110b 2abe ac0e 17bf
000002e0: fe8e 25bf f66e 833d 0ccb 583e 2593 68be
000002f0: da7c f63e 2ccd b6be 04d5 f83e cf21 723d
00000300: 59e7 763e 4f8d b7be de48 093e 7ebb bdbe
00000310: b8a1 babe d7ca 3b3e bce4 bb3e 6b90 8e3e
00000320: 9226 503d 04d1 a13e dd25 72bd 79e5 cdbe
00000330: c2f4 69be ff6c 0cbf d3b1 893e 7271 a33d
00000340: d411 89be 8dc0 33bf 3b49 893e 2783 1dbf
00000350: a308 b0bc 1a27 86be 676e 4bbf 1ed2 473d
00000360: 4737 f8be 11d2 923d 97e8 22be 13d7 933f
00000370: ed55 26bc 2aee 133e 9140 863f 2bb1 66bd
00000380: 14e4 e83e e38c ea3d 6f25 11be fa31 dfbe
00000390: b7d2 bdbe 5a58 93bd 6902 2d3d 5412 9abe
000003a0: 2c02 0d3e bfb1 73be ce4e 4f3f f6ac 8c3e
000003b0: 32dc 2fbc f85a 7dbe 86ee 94be 98d2 a73e
000003c0: bcba 303c 6176 9dbc 6034 c33d aebb 97be
000003d0: d686 3b3e 51e5 e7bd ce62 92be 2736 c5be
000003e0: 4fc4 4c3e f2a3 0dbe 8ee7 68be df8e 95bd
000003f0: 4b86 97bd 74f4 5fbe 64e5 f53e 6a3f 263e

network_body._body_endoder.seq_layers.0.bias f4 [128]
-0.022685137 -0.03627736 0.10824375 0.031015135 0.05834317 0.088829294 -0.051187452 -0.017940927
-0.04424228 -0.031498935 -0.11649917 0.08676388 0.02902267 -0.024577806 0.058885008 -0.0120965475
-0.090619005 0.11686131 0.018978119 0.014098677 -0.09757738 0.024739183 -0.022328265 0.048912454
-0.08616847 -0.044263016 -0.03151487 0.031111373 0.028408125 0.048382908 -0.011026131 0.01483871
0.014498837 0.011102909 0.037255645 0.07898609 -0.011734444 0.07417888 0.060677435 0.013144651
-0.17618407 0.06358158 0.036386322 0.026813319 -0.120302096 0.08862294 -0.108073905 -0.03212457
0.034286745 0.016703349 -0.06108135 -0.042814724 0.0807263 0.028010838 -0.01531367 -0.07926569
-0.03747463 -0.0091108335 0.062021505 -0.018100861 0.061505437 0.0073832613 -0.060587186 0.1615753
0.060003657 0.07299456 0.011706068 -0.053774565 -0.023113506 -0.056305524 0.005381623 0.022690713
-0.068391204 0.07301315 0.043766413 -0.051066034 0.044444274 0.083441906 -0.014737803 0.076429926
0.012190791 0.09622671 0.11562698 0.0932903 0.11626227 -0.15172203 -0.04828745 0.19877328
0.010937403 -0.015172487 -0.036369838 -0.0072307666 0.041668877 -0.077311404 -0.08550402 0.050479047
0.033378668 0.16086526 -0.10170753 0.030525638 -0.115536846 0.057053022 0.009539487 0.06583549
0.065451466 0.06835223 0.017030055 0.0385063 0.097387105 -0.057263352 0.062493294 0.080654986
0.030372974 0.0012672505 0.030647824 -0.057585075 0.117383145 -0.034657113 1.4523659e-05 0.07457186
0.0020720395 0.053733055 0.024430837 -0.010016964 -0.08758546 0.059989452 0.08972713 0.15220739
00000000: 2ed6 b9bc 9297 14bd e6ae dd3d 7413 fe3c
00000010: 3ff9 6e3d 22ec b53d efa9 51bd daf8 92bc
00000020: 6537 35bd 0705 01bd 1e97 eebd 43b1 b13d
00000030: f3c0 ed3c 6557 c9bc 6831 713d 9930 46bc
00000040: 7596 b9bd fc54 ef3d 0078 9b3c 23fe 663c
00000050: a6d6 c7bd d4a9 ca3c c4e9 b6bc 6d58 483d
00000060: 1879 b0bd 234d 35bd bc15 01bd 47dd fe3c
00000070: 28b8 e83c 282d 463d f2a6 34bc 101e 733c
00000080: 888c 6d3c fae8 353c 6099 183d 76c3 a13d
00000090: d341 40bc 19eb 973d e788 783d aa5c 573c
000000a0: 9969 34be 0f37 823d d309 153d 9ba7 db3c
000000b0: f260 f6bd f27f b53d da55 ddbd 0e95 03bd
000000c0: 4270 0c3d 76d5 883c 7030 7abd 7e5e 2fbd
000000d0: d553 a53d fc76 e53c 30e6 7abc 0d56 a2bd
000000e0: ff7e 19bd 9b45 15bc 430a 7e3d 4248 94bc
000000f0: 20ed 7b3d 49ef f13b 452a 78bd ff73 253e
00000100: 65c6 753d 2c7e 953d cfca 3f3c b842 5cbd
00000110: 8958 bdbc 9fa0 66bd 5358 b03b e0e1 b93c
00000120: b010 8cbd eb87 953d 6944 333d 9e2a 51bd
00000130: 330b 363d 97e3 aa3d d376 71bc 4b87 9c3d
00000140: e2bb 473c 8212 c53d d7cd ec3d fc0e bf3d
00000150: ea1a ee3d 055d 1bbe 10c9 45bd 398b 4b3e
00000160: cb32 333c 0696 78bc 8af8 14bd 11f0 ecbb
00000170: fcac 2a3d 7155 9ebd bb1c afbd 1ec3 4e3d
00000180: 12b8 083d ddb9 243e 0a4c d0bd e710 fa3c
00000190: 959e ecbd 6eb0 693d 824b 1c3c c2d4 863d
000001a0: 6b0b 863d 41fc 8b3d 9d82 8b3c c8b8 1d3d
000001b0: e472 c73d fa8c 6abd f8f8 7f3d 712e a53d
000001c0: bed0 f83c df19 a63a 2511 fb3c 54de 6bbd
000001d0: 9366 f03d 9ef4 0dbd a4aa 7337 22b9 983d
000001e0: 0ecb 073b 3117 5c3d 2e23 c83c 311e 24bc
000001f0: 0160 b3bd 80b7 753d dcc2 b73d 41dc 1b3e

network_body._body_endoder.seq_layers.2.weight f4 [128, 128]
-0.15389518 -0.14283049 -0.16407323 0.15205182 0.0471943 0.009897708 -0.19510403 0.13758036
0.15605065 -0.19614255 -0.015073967 -0.1592723 0.12587503 0.00035945204 -0.0068444875 0.07006831
0.01488551 0.013942523 -0.1492561 -0.36197054 -0.020307858 0.042265564 -0.019541202 -0.10971762
0.006364192 -0.09871692 0.03425758 0.12724622 -0.17270787 -0.059711732 -0.07396601 -0.010544042
0.12364008 -0.08925677 -0.08602823 0.0719051 0.01450573 -0.011011195 0.121187985 -0.11595386
0.024499254 -0.03292825 0.17263232 -0.10241369 -0.06999485 -0.07245077 -0.07846132 0.032791477
0.029146357 0.022853151 0.0140810395 -0.15640698 -0.004363986 0.21110728 0.12472536 -0.10450643
0.026617361 0.2378816 -0.013097016 -0.07772207 -0.16578709 -0.15726845 -0.078745596 -0.049265996
0.11031815 -0.21177132 0.007927422 0.025315536 -0.025337545 0.091020554 -0.22633815 0.100225106
-9.469328e-05 0.0912327 -0.07116043 -0.07640489 0.023103638 -0.37346727 0.0067907744 -0.15833655
-0.07928731 0.013325366 0.07242608 -0.008120819 -0.027269581 -0.16851136 0.016426362 0.0056188065
0.09351005 0.07647851 -0.125598 -0.127651 0.11035167 0.11208271 0.02047372 0.001287789
-0.13158171 0.20539871 -0.1734548 -0.14540088 0.22468577 -0.17671202 -0.044909544 -0.17958613
-0.02053348 0.053962182 -0.106336325 -0.011125047 -0.13490374 -0.09775072 -0.25493106 -0.09186705
0.040423524 -0.09580307 -0.04398252 -0.048681278 -0.257579 0.07947069 -0.43424094 -0.1310918
-0.03869969 -0.2882328 -0.019647842 -0.07333769 0.23381905 0.023836916 0.037086688 0.13014296
-0.023871938 0.044660434 0.020728586 0.028829092 -0.04987395 0.013102769 0.05754476 0.04480414
0.1194834 0.030537631 0.027761558 0.20470849 -0.10317127 -0.060260784 -0.06832851 -0.105246946
-0.033640917 -0.05905471 -0.051616285 -0.12526467 0.027056865 -0.2267339 -0.215195 -0.13892326
-0.029825937 0.10958413 -0.013802657 -0.13264257 -0.039103806 -0.07595501 -0.18547325 -0.18714382
-0.24346553 -0.012445639 0.01657294 0.042368498 -0.051976994 -0.16452113 0.073858574 0.109419025
-0.010158471 -0.071352236 -0.05687016 -0.026847426 -0.08083464 0.043455135 -0.0818001 -0.007956499
-0.11956209 -0.088237055 -0.17274152 -0.12655653 0.08793447 -0.1953775 -0.048251946 0.022455163
0.026817726 -0.156748 -0.14828795 -0.118368976 -0.056848004 0.027515922 -0.043374144 -0.0021847503
-0.0037380245 -0.028739812 0.19923925 -0.04294465 -0.09349169 -0.12375582 0.21110862 -0.20768982
0.005520588 0.015538908 0.06912938 0.056388177 -0.055439487 0.03367194 -0.10468245 -0.07366775
-0.007096377 0.02225097 -0.022624385 -0.04600229 -0.24139456 0.049795896 -0.037154887 0.015444489
0.12660497 0.025813468 -0.00082425756 -0.27274746 -0.025850097 -0.1864605 0.120327555 0.0118236225
0.06972727 0.063356206 -0.049169872 0.043644033 -0.18100996 0.15704672 0.01419317 0.1431142
-0.016124004 0.033987954 0.10592952 -0.08007678 0.2004792 -0.035747208 0.07503524 -0.1683135
-0.023292376 -0.063228615 0.03899929 0.09299707 0.26729694 -0.056649685 0.12956779 0.040298086
-0.10316917 -0.020284366 0.04909201 0.017442243 0.032831848 0.0911926 0.13361178 -0.15021372
00000000: b396 1dbe 2842 12be d002 28be 79b3 1b3e
00000010: cf4e 413d ff29 223c 5ac9 47be dee1 0c3e
00000020: becb 1f3e 98d9 48be cdf8 76bc 4718 23be
00000030: 62e5 003e d674 bc39 b947 e0bb f97f 8f3d
00000040: 5be2 733c 2e6f 643c 97d6 18be 3454 b9be
00000050: aa5c a6bc a81e 2d3d df14 a0bc a2b3 e0bd
00000060: b68a d03b 192c cabd ad51 0c3d d54c 023e
00000070: 55da 30be 4a94 74bd 7e7b 97bd ebc0 2cbc
00000080: 0337 fd3d 41cc b6bd 922f b0bd fb42 933d
00000090: 71a9 6d3c 4d68 34bc 6831 f83d 3879 edbd
000000a0: a9b2 c83c c6df 06bd 87c6 303e 45be d1bd
000000b0: 7659 8fbd 1261 94bd 54b0 a0bd 5b50 063d
000000c0: 57c4 ee3c 8836 bb3c 29b4 663c 2729 20be
000000d0: c5ff 8ebb 822c 583e 0270 ff3d 7807 d6bd
000000e0: a70c da3c 3c97 733e de94 56bc c02c 9fbd
000000f0: 17c4 29be fb0a 21be 5f45 a1bd 24cb 49bd
00000100: 7bee e13d 95da 58be 05e2 013c 8762 cf3c
00000110: af90 cfbc fc68 ba3d 30c5 67be d242 cd3d
00000120: 1196 c6b8 36d8 ba3d 8fbc 91bd 2b7a 9cbd
00000130: d743 bd3c 1a37 bfbe 2585 de3b fa22 22be
00000140: 6361 a2bd a352 5a3c 2054 943d 2f0d 05bc
00000150: 7564 dfbc 3e8e 2cbe 9490 863c f71d b83b
00000160: 3282 bf3d c4a0 9c3d c39c 00be f2b6 02be
00000170: 0e00 e23d 9f8b e53d 81b8 a73c 07cb a83a
00000180: 5bbd 06be 0a54 523e 239e 31be f8e3 14be
00000190: 0714 663e fff3 34be 12f3 37bd 6de5 37be
000001a0: d435 a8bc 7307 5d3d dcc6 d9bd d445 36bc
000001b0: 3524 0abe 8831 c8bd 5386 82be cb24 bcbd
000001c0: 2393 253d 6634 c4bd 0427 34bd 0566 47bd
000001d0: 65e1 83be 87c1 a23d d454 debe ee3c 06be
000001e0: 9183 1ebd 4093 93be 83f4 a0bc 1232 96bd
000001f0: 436e 6f3e a345 c33c 36e8 173d 3244 053e
00000200: 158f c3bc dced 363d ffce a93c fd2a ec3c
00000210: a148 4cbd ffac 563c 0eb4 6b3d 8c84 373d
00000220: b6b3 f43d 0e2a fa3c 356c e33c 1a9f 513e
00000230: 754b d3bd 03d4 76bd d1ef 8bbd b68b d7bd
00000240: 0fcb 09bd 5ae3 71bd 996b 53bd 6245 00be
00000250: 5ca6 dd3c ee2c 68be 145c 5cbe e641 0ebe
00000260: 8655 f4bc a56d e03d 8a24 62bc 74d3 07be
00000270: 502b 20bd 4d8e 9bbd b3ec 3dbe a1a2 3fbe
00000280: 074f 79be cbe8 4bbc f9c3 873c 978a 2d3d
00000290: d4e5 54bd 3a78 28be 2a43 973d 1517 e03d
000002a0: b76f 26bc 1f21 92bd aff0 68bd 22ef dbbc
000002b0: a28c a5bd 03fe 313d d086 a7bd fa5b 02bc
000002c0: f8dc f4bd a1b5 b4bd 27e3 30be 0998 01be
000002d0: fd16 b43d 0a11 48be d5a3 45bd e4f3 b73c
000002e0: d9b0 db3c 8c82 20be ccd8 17be 6f6b f2bd
000002f0: 74d9 68bd 1269 e13c 16a9 31bd 072e 0fbb
00000300: a5f9 74bb c16f ebbc 6005 4c3e bbe6 2fbd
00000310: 9278 bfbd b173 fdbd dc2c 583e a4ac 54be
00000320: 0ce6 b43b e796 7e3c b493 8d3d 4af7 663d
00000330: 8414 63bd 97eb 093d c163 d6bd 1edf 96bd
00000340: ba88 e8bb ab47 b63c c656 b9bc e66c 3cbd
00000350: 2330 77be c8f6 4b3d b92f 18bd e20a 7d3c
00000360: bca4 013e c476 d33c fd12 58ba 8ea5 8bbe
00000370: 95c3 d3bc 80ef 3ebe 4b6e f63d deb7 413c
00000380: 2ccd 8e3d e6c0 813d 5966 49bd 16c4 323d
00000390: ad5a 39be dbd0 203e 788a 683c 878c 123e
000003a0: 7d16 84bc f436 0b3d 94f1 d83d 4bff a3bd
000003b0: 6b4a 4d3e aa6b 12bd 13ac 993d 605a 2cbe
000003c0: a7cf bebc 017e 81bd b8bd 1f3d 3f75 be3d
000003d0: 25db 883e 8009 68bd 6bad 043e 9b0f 253d
000003e0: 5c4a d3bd 662b a6bc b414 493d 09e3 8e3c
000003f0: b07a 063d 30c3 ba3d 87d1 083e a0d1 19be

network_body._body_endoder.seq_layers.2.bias f4 [128]
0.07819886 -0.08733851 0.06800282 0.009474355 0.027844869 0.044484604 0.035471294 0.1243487
-0.030729504 0.015602089 0.01700391 0.12027242 -0.030343624 0.042969283 -0.0071851728 0.050586645
-0.034660917 -0.027653068 0.037819598 -0.07614256 0.008168205 0.1006806 0.11795131 0.032294482
0.075380825 -0.014499185 -0.054348025 0.011724764 -0.049241163 0.113181226 0.09930506 0.10696772
-0.050938193 -0.034362383 0.008591138 0.023864897 0.017610077 0.055470463 0.040627744 -0.0452105
0.03997192 0.043734998 0.024011906 0.08315311 -0.005872027 0.0068158424 0.059851382 0.019476585
-0.0004794264 -0.0075595183 -0.10377849 -0.022231264 0.026591873 -0.11486909 0.024320815 0.06239314
0.05814033 0.09642388 -0.022082785 0.079132855 -0.022647081 0.050015163 -0.023777025 0.023630876
0.08937684 -0.048411798 0.049161933 -0.017279318 0.054433588 0.09238634 0.09044236 -0.00024188444
-0.056489456 0.026592772 -0.05943407 -0.032709926 -0.004363018 0.13899949 0.055487417 0.06488209
0.11530683 0.008192188 0.09293218 0.028104829 0.01587794 -0.04394411 0.0453082 0.10580222
0.04061946 0.04147527 -0.028760377 -0.076375484 0.008241491 -0.016656263 0.05660394 -0.031994034
0.06730013 -0.060005356 0.012807608 0.017868903 0.06823553 0.050466616 0.020851959 0.030014567
0.03798926 -0.11678077 -0.017950647 -0.07145245 0.07420208 0.07005552 -0.041704483 0.07930238
-0.034198117 -0.028896766 -0.08624383 0.01509739 0.037527423 -0.008949952 0.074056305 -0.0069514723
0.0015759635 0.0030502912 -0.030272288 0.060849495 0.108015634 0.010591981 0.06898033 0.10080452
00000000: b926 a03d 88de b2bd 1045 8b3d 533a 1b3c
00000010: ec1a e43c 7d35 363d 594a 113d 88aa fe3d
00000020: 71bc fbbc e89f 7f3c c94b 8b3c 6351 f63d
00000030: 3193 f8bc 8f00 303d 9971 ebbb f133 4f3d
00000040: 9bf8 0dbd b088 e2bc b9e8 1a3d a1f0 9bbd
00000050: efd3 053c a131 ce3d 7590 f13d 3847 043d
00000060: 4361 9a3d fd8d 6dbc 099c 5ebd 3919 403c
00000070: 1ab1 49bd 8fcb e73d 7460 cb3d e411 db3d
00000080: 91a4 50bd 92bf 0cbd d8c1 0c3c 5180 c33c
00000090: 0243 903c ff34 633d 4769 263d a52e 39bd
000000a0: 99b9 233d 7823 333d 9eb4 c43c 2e4c aa3d
000000b0: 226a c0bb 6e57 df3b b926 753d 5c8d 9f3c
000000c0: 865b fbb9 d6b5 f7bb d189 d4bd 571e b6bc
000000d0: 33d7 d93c 7c40 ebbd 723c c73c f38f 7f3d
000000e0: 8e24 6e3d e279 c53d f5e6 b4bc 6810 a23d
000000f0: 5f86 b9bc b3dc 4c3d 09c8 c2bc 8a95 c13c
00000100: 340b b73d 734b 46bd 065e 493d 5b8d 8dbc
00000110: c1f5 5e3d 0d35 bd3d d839 b93d 5ca2 7db9
00000120: 7d61 67bd 16d9 d93c 2471 73bd d8fa 05bd
00000130: a6f7 8ebb e255 0e3e c646 633d e7e0 843d
00000140: fd25 ec3d 8738 063c 3a53 be3d 193c e63c
00000150: 7412 823c bdfe 33bd 1795 393d d6ae d83d
00000160: 9760 263d f9e1 293d e29a ebbc c06a 9cbd
00000170: 5207 073c b772 88bc 88d9 673d 2d0c 03bd
00000180: a7d4 893d 2dc8 75bd 00d7 513c ce61 923c
00000190: 12bf 8b3d 15b6 4e3d bad1 aa3c 1ce1 f53c
000001a0: a09a 1b3d c22a efbd 3c0d 93bc a955 92bd
000001b0: 43f7 973d 4579 8f3d 52d2 2abd 4969 a23d
000001c0: 5313 0cbd e9b8 ecbc 9ba0 b0bd 0b5b 773c
000001d0: 5bb6 193d d2a2 12bc d5aa 973d 2dc9 e3bb
000001e0: 8f90 ce3a 65e7 473b 97fd f7bc 523d 793d
000001f0: 4d37 dd3d fd89 2d3c 8f45 8d3d 9a72 ce3d

action_model._continuous_distribution.log_sigma f4 [1, 2]
-0.454679 -0.3942646
00000000: b0cb e8be 0ddd c9be

action_model._continuous_distribution.mu.weight f4 [2, 128]
-0.08623404 -0.03607862 -0.004936217 0.09044556 0.15583685 -0.054282263 -0.019518057 -0.10721435
0.022232827 0.0755405 -0.048775565 -0.13074099 -0.005352789 -0.028101455 0.12794639 -0.026997317
0.036139317 -0.016231636 -0.02891317 -0.010352252 0.0769735 -0.06052604 0.08123092 0.043237273
-0.041231677 0.024176808 -0.031110847 -0.03792285 0.022708843 -0.02524981 -0.058529243 -0.06365439
-0.012885271 0.034318008 0.03440221 0.06984879 0.051836178 0.016233481 -0.053282596 -0.0075858277
0.05223758 0.10232955 0.004050764 -0.015352215 -0.01746876 -0.056692645 -0.009426992 0.06032987
0.036141373 -0.03917983 -0.027533686 0.026506204 0.043408647 0.051336307 0.06800891 0.07041747
0.036688726 -0.09763026 -0.03539082 0.10030164 -0.008745025 -0.05859975 -0.046502933 0.086060494
0.14995843 -0.012970647 -0.015363903 0.047333337 0.084372915 -0.041673336 -0.008235315 -0.026399544
-0.035558186 -0.020290632 0.007438301 -0.06709612 0.05738328 -0.1063357 0.020177456 -0.038340513
-0.04382701 0.083036624 0.12429233 0.05230319 -0.048776444 0.031037463 -0.07566953 -0.07589078
0.04003003 -0.08289943 0.016795855 0.0017448381 0.089879446 0.012766972 0.02526228 0.06321293
-0.086993515 -0.012596423 -0.026839733 -0.025378492 0.029063834 0.015853409 -0.05218642 0.0024892737
0.01646885 0.0007958448 0.063659266 0.021825803 0.12872906 -0.040924456 -0.0043682517 0.015492127
0.028473735 0.06805512 0.029870464 0.00040647216 -0.05850425 0.054321177 -0.0074253906 -0.098546825
-0.0045670955 0.05643944 -0.027144715 0.11010164 -0.045657143 -0.014439228 -0.0040220805 -0.045479193
0.011987748 0.020303495 0.099013366 -0.05631786 -0.08191326 -0.055043872 0.08445737 0.06503592
0.06896425 0.006665823 0.0813986 0.13107808 0.050411496 -0.034566175 -0.0410576 -0.025034893
0.025590036 -0.023151424 -0.015965527 0.044897508 -0.010817135 -0.0683903 -0.1529753 -0.09160274
0.09951991 -0.043154504 0.023033353 0.08056502 0.02474055 0.01557059 -0.056272686 -0.13106085
0.064102136 -0.0023696453 0.0688969 -0.041100793 -0.027961377 0.124510415 0.07988349 -0.036697723
-0.063557684 -0.054011196 0.051268015 -0.10979796 0.028902756 0.027690189 -0.098660454 0.07597526
0.07539494 -0.027954271 -0.027450806 -0.032785565 0.11764919 -0.06613811 0.059931517 0.045850933
-0.068014756 -0.063247375 0.013279119 0.054341905 0.062678 0.0221283 -0.016012441 0.013012337
0.04883379 0.008338061 0.06443811 -0.033451274 0.04182356 -0.02176568 -0.15260872 -0.022305936
-0.01312885 0.1230331 -0.0445277 0.037175167 -0.012154159 -0.11075452 0.08225188 -0.07064989
-0.0205234 0.09714729 0.06391752 -0.015095558 0.031684466 0.018219199 -0.03962343 -0.07734355
0.091346525 0.12162571 -0.016539413 -0.0119530065 0.06920797 0.044976808 -0.11189699 -0.026703103
0.016531385 0.01950449 -0.02540766 -0.07296987 -0.09707542 -0.12725013 -0.0071176332 0.08713407
0.054625385 -0.012095772 -0.03392255 -0.026710507 0.02642374 -0.05982442 -0.029237023 -0.07918559
-0.059546646 0.010991317 0.027498089 0.044035867 0.04827579 -0.020824427 0.057731558 0.013478357
0.09011721 0.041041117 0.02811038 0.019438164 0.06635647 -0.065466076 0.105032414 0.12693477
00000000: 799b b0bd 2dc7 13bd fdbf a1bb 863b b93d
00000010: b293 1f3e 1457 5ebd 55e4 9fbc 3293 dbbd
00000020: 9e21 b63c fab4 9a3d e3c8 47bd f7e0 05be
00000030: 7366 afbb 0635 e6bc 6104 033e 7a29 ddbc
00000040: d206 143d 35f8 84bc 50db ecbc 7e9c 29bc
00000050: 48a4 9d3d 27ea 77bd 665c a63d 9119 313d
00000060: 8ce2 28bd 710e c63c 2ddc febc fe54 1bbd
00000070: e507 ba3c b1d8 cebc 5cbc 6fbd 3c5d 82bd
00000080: be1c 53bc 0a91 0c3d 55e9 0c3d e20c 8f3d
00000090: 2c52 543d 14fc 843c da3e 5abd 8992 f8bb
000000a0: 13f7 553d 2892 d13d 45bc 843b db87 7bbc
000000b0: a51a 8fbc 8c36 68bd ac73 1abc 741c 773d
000000c0: fa08 143d 087b 20bd 538e e1bc 8a23 d93c
000000d0: 44cd 313d 0546 523d 4148 8b3d 0937 903d
000000e0: eb46 163d 60f2 c7bd f7f5 10bd f26a cd3d
000000f0: 4b47 0fbc 4b06 70bd dc79 3ebd 7c40 b03d
00000100: b48e 193e d682 54bc e1b8 7bbc 9ae0 413d
00000110: b5cb ac3d a9b1 2abd 6aed 06bc db43 d8bc
00000120: 76a5 11bd 8a38 a6bc febc f33b b169 89bd
00000130: bb0a 6b3d 88c6 d9bd 314b a53c f10a 1dbd
00000140: f383 33bd 1b0f aa3d fa8c fe3d df3b 563d
00000150: cfc9 47bd 4742 fe3c a0f8 9abd a06c 9bbd
00000160: 87f6 233d 2dc7 a9bd 7697 893c 0db3 e43a
00000170: b712 b83d 902c 513c d7f2 ce3c c875 813d
00000180: a829 b2bd 3a61 4ebc 00df dbbc 8ee6 cfbc
00000190: 4717 ee3c 02df 813c 6dc1 55bd 1523 233b
000001a0: afe9 863c 3ea0 503a ca5f 823d 07cc b23c
000001b0: 8dd1 033e 67a0 27bd 8d23 8fbb b1d2 7d3c
000001c0: c041 e93c 7c60 8b3d e7b2 f43c c51b d539
000001d0: 27a2 6fbd e27f 5e3d b150 f3bb ebd2 c9bd
000001e0: 93a7 95bb 0b2d 673d 985e debc f87c e13d
000001f0: fc02 3bbd 8392 6cbc a8cb 83bb 6448 3abd
00000200: 4268 443c 8453 a63c 85c7 ca3d 8ead 66bd
00000210: 24c2 a7bd af75 61bd fcf7 ac3d 8d31 853d
00000220: 213d 8d3d fa6c da3b 4fb4 a63d 5539 063e
00000230: 497c 4e3d 4395 0dbd 042c 28bd fa15 cdbc
00000240: 32a2 d13c 0ea8 bdbc 23ca 82bc 73e6 373d
00000250: 5a3a 31bc 3710 8cbd 8fa5 1cbe 389a bbbd
00000260: 18d1 cb3d c7c2 30bd 71b0 bc3c 46ff a43d
00000270: b2ac ca3c ca1b 7f3c 307e 66bd d134 06be
00000280: fb47 833d 0d4c 1bbb d119 8d3d 4e59 28bd
00000290: 420f e5bc 51ff fe3d f599 a33d 5a50 16bd
000002a0: 882a 82bd d83a 5dbd 69fe 513d c1dd e0bd
000002b0: 79c5 ec3c 89d6 e23c 7e0e cabd eb98 9b3d
000002c0: aa68 9a3d 5b00 e5bc 83e0 e0bc 284a 06bd
000002d0: 0ff2 f03d 6b73 87bd c07a 753d 30ce 3b3d
000002e0: 524b 8bbd d787 81bd a990 593c 9e95 5e3d
000002f0: 535d 803d 6946 b53c 862c 83bc b231 553c
00000300: f105 483d 5d9c 083c 21f8 833d 3404 09bd
00000310: 2e4f 2b3d f04d b2bc 7645 1cbe f0ba b6bc
00000320: 631a 57bc c7f8 fb3d ad62 36bd fd44 183d
00000330: 3d22 47bc 44d3 e2bd ac73 a83d e4b0 90bd
00000340: b020 a8bc 29f5 c63d 30e7 823d 5c53 77bc
00000350: 92c7 013d 6e40 953c 2e4c 22bd 4c66 9ebd
00000360: e313 bb3d e616 f93d aa7d 87bc 8bd6 43bc
00000370: e8bc 8d3d 9a39 383d 402a e5bd 77c0 dabc
00000380: d46c 873c e1c7 9f3c ba23 d0bc 3a71 95bd
00000390: 7acf c6bd dc4d 02be 093b e9bb 5973 b23d
000003a0: debe 5f3d 582d 46bc 5ff2 0abd fecf dabc
000003b0: 9976 d83c 730a 75bd 7b82 efbc 0e2c a2bd
000003c0: 2fe7 73bd ed14 343c ac43 e13c f45e 343d
000003d0: d6bc 453d fd97 aabc ed77 6c3d 54d4 5c3c
000003e0: 5f8f b83d bb1a 283d bd47 e63c c93c 9f3c
000003f0: e7e5 873d 1413 86bd 3c1b d73d 30fb 013e

action_model._continuous_distribution.mu.bias f4 [2]
-0.049673147 0.008713122
00000000: 1276 4bbd 7cc1 0e3c

action_model._discrete_distribution.branches.0.weight f4 [1, 128]
0.0020986795 -0.01023105 0.016980542 0.019544607 0.0022106858 -0.008294812 -0.0048156725 0.0052459524
-0.01227434 0.0073968894 9.969005e-05 -0.002997512 0.0039834036 -0.007829699 0.005179323 -0.0072537707
-0.003640777 -4.653402e-05 0.002244482 -0.0017212678 -0.017367033 -0.01063179 0.0039310143 0.00917225
-0.007661076 0.007263228 -0.00243142 -0.0021725225 -0.00785905 0.0020891537 -0.006169676 -0.022919968
0.009797524 -0.005965158 0.002997935 0.0018296263 0.009184958 0.017044801 0.0031839937 0.012093505
-0.013318739 -0.013908508 0.0026025928 -0.0017526202 0.013919974 0.017092437 -0.01643542 -0.003561896
-0.0049379165 0.00033954481 -0.012246071 0.0050537377 0.0077062943 0.00531418 0.004168058 -0.010658848
0.001897038 0.0012705129 0.004222 0.0026459543 0.00989807 0.0080856215 0.008728544 0.0014408963
-0.0045935763 0.003884449 -0.016910128 -0.0071519366 -0.012433745 -0.0012824914 -0.006989006 -0.010566692
0.0016607627 0.0060949605 0.0045997296 0.015657391 0.00033741078 0.01648831 -0.006402768 -0.00890536
-0.016485786 0.0036533184 0.011373668 -0.004886241 0.01554548 0.011615084 0.0026242195 -0.016556706
-0.0009040958 0.004314305 0.006997005 -0.004846652 0.0069397115 0.017744213 -0.0037770357 -0.00079819636
0.0054839267 0.0061236015 -0.007533499 -0.005017593 -0.0126204165 0.00092743983 -0.0021844225 0.0020231584
-0.008523854 0.0031301205 -0.011137526 -0.006309288 0.009118428 0.007869049 -0.0069676987 0.0077785994
0.00024013621 -0.0001552402 -0.008893508 -0.011611258 -0.00046723319 0.000786537 0.002500047 -0.0048225103
0.0025992694 0.0055041495 0.006309898 -0.00851592 0.0061963242 -0.009621064 0.013113729 0.0070988387
00000000: 008a 093b 22a0 27bc c71a 8b3c 031c a03c
00000010: 27e1 103b f7e6 07bc cacc 9dbb 3de6 ab3b
00000020: 501a 49bc 9b61 f23b b010 d138 e871 44bb
00000030: 3687 823b 2348 00bc 4fb7 a93b 0ab1 edbb
00000040: 1a9a 6ebb 862d 43b8 2918 133b 2a9c e1ba
00000050: 4f45 8ebc f630 2ebc bdcf 803b 3447 163c
00000060: c309 fbbb 5f00 ee3b 7558 1fbb e160 0ebb
00000070: 3fc3 00bc 2fea 083b fe2a cabb a8c2 bbbc
00000080: cb85 203c 5f77 c3bb 0179 443b 12d0 ef3a
00000090: 827c 163c 8aa1 8b3c 8daa 503b d623 463c
000000a0: d736 5abc 83e0 63bc 4390 2a3b 2db8 e5ba
000000b0: 9a10 643c 7005 8c3c 93a3 86bc b36e 69bb
000000c0: 3fce a1bb ef04 b239 bfa3 48bc d399 a53b
000000d0: 1585 fc3b 9322 ae3b 3494 883b 73a2 2ebc
000000e0: 08a6 f83a 5787 a63a b458 8a3b bf67 2d3b
000000f0: 842b 223c 8e79 043c 2b02 0f3c 75dc bc3a
00000100: b685 96bb 3d92 7e3b 1c87 8abc cb5a eabb
00000110: e8b6 4bbc 4519 a8ba 0804 e5bb eb1f 2dbc
00000120: f3ad d93a 3cb8 c73b 54b9 963b ee43 803c
00000130: 82e6 b039 7e12 873c 50ce d1bb c9e7 11bc
00000140: 330d 87bc 836c 6f3b 9f58 3a3c c31c a0bb
00000150: 78b2 7e3c 314d 3e3c 19fb 2b3b eea1 87bc
00000160: d800 6dba 035f 8d3b 2247 e53b aad0 9ebb
00000170: 8566 e33b 505c 913c 2588 77bb 0d3e 51ba
00000180: 83b2 b33b 7ea8 c83b 92db f6bb 9f6a a4bb
00000190: ddc5 4ebc 6f1f 733a 8728 0fbb f796 043b
000001a0: a3a7 0bbc b522 4d3b 2b7a 36bc 25be cebb
000001b0: 7665 153c 2fed 003c 4b51 e4bb 9fe3 fe3b
000001c0: 13cd 7b39 f9c7 22b9 14b6 11bc 253d 3ebc
000001d0: faf6 f4b9 9b2f 4e3a d4d7 233b 2606 9ebb
000001e0: 8158 2a3b 275c b43b 43c3 ce3b 5b86 0bbc
000001f0: 890a cb3b aba1 1dbc f7da 563c 609d e83b
